…
    "    model.compile(loss='categorical_crossentropy',\n",
    "              optimizer='adam',\n",
    "              metrics=['accuracy'])\n",
    "    return model"
   ]
  },
  {
   "cell_type": "code",
   "execution_count": 366,
   "metadata": {},
   "outputs": [
    {
     "name": "stdout",
     "output_type": "stream",
     "text": [
      "Model: \"sequential_9\"\n",
      "_________________________________________________________________\n",
      "Layer (type)                 Output Shape              Param #   \n",
      "=================================================================\n",
      "dense_25 (Dense)             (None, 256)               443136    \n",
      "_________________________________________________________________\n",
      "p_re_lu_17 (PReLU)           (None, 256)               256       \n",
      "_________________________________________________________________\n",
      "batch_normalization_17 (Batc (None, 256)               1024      \n",
      "_________________________________________________________________\n",
      "dropout_17 (Dropout)         (None, 256)               0         \n",
      "_________________________________________________________________\n",
      "dense_26 (Dense)             (None, 64)                16448     \n",
      "_________________________________________________________________\n",
      "p_re_lu_18 (PReLU)           (None, 64)                64        \n",
      "_________________________________________________________________\n",
      "batch_normalization_18 (Batc (None, 64)                256       \n",
      "_________________________________________________________________\n",
      "dropout_18 (Dropout)         (None, 64)                0         \n",
      "_________________________________________________________________\n",
      "dense_27 (Dense)             (None, 12)                780       \n",
      "_________________________________________________________________\n",
      "activation_9 (Activation)    (None, 12)                0         \n",
      "=================================================================\n",
      "Total params: 461,964\n",
      "Trainable params: 461,324\n",
      "Non-trainable params: 640\n",
      "_________________________________________________________________\n"
     ]
    }
   ],
   "source": [
    "model=model_no_events(X_tr_o_h.shape[1])\n",
    "model.summary()"
   ]
  },
  {
   "cell_type": "code",
…
   "execution_count": 201,
   "metadata": {},
   "outputs": [
    {
     "name": "stdout",
     "output_type": "stream",
     "text": [
      "WARNING:tensorflow:Large dropout rate: 0.8 (>0.5). In TensorFlow 2.x, dropout() uses dropout rate instead of keep_prob. Please ensure that this is intended.\n",
      "Model: \"sequential_6\"\n",
      "_________________________________________________________________\n",
      "Layer (type)                 Output Shape              Param #   \n",
      "=================================================================\n",
      "dropout_18 (Dropout)         (None, 21566)             0         \n",
      "_________________________________________________________________\n",
      "dense_17 (Dense)             (None, 240)               5176080   \n",
      "_________________________________________________________________\n",
      "p_re_lu_13 (PReLU)           (None, 240)               240       \n",
      "_________________________________________________________________\n",
      "dropout_19 (Dropout)         (None, 240)               0         \n",
      "_________________________________________________________________\n",
      "dense_18 (Dense)             (None, 240)               57840     \n",
      "_________________________________________________________________\n",
      "p_re_lu_14 (PReLU)           (None, 240)               240       \n",
      "_________________________________________________________________\n",
      "dropout_20 (Dropout)         (None, 240)               0         \n",
      "_________________________________________________________________\n",
      "dense_19 (Dense)             (None, 260)               62660     \n",
      "_________________________________________________________________\n",
      "p_re_lu_15 (PReLU)           (None, 260)               260       \n",
      "_________________________________________________________________\n",
      "dropout_21 (Dropout)         (None, 260)               0         \n",
      "_________________________________________________________________\n",
      "dense_20 (Dense)             (None, 12)                3132      \n",
      "_________________________________________________________________\n",
      "activation_5 (Activation)    (None, 12)                0         \n",
      "=================================================================\n",
      "Total params: 5,300,452\n",
      "Trainable params: 5,300,452\n",
      "Non-trainable params: 0\n",
      "_________________________________________________________________\n"
     ]
    }
   ],
   "source": [
    "model=model_nn(X_tr_event_o_h.shape[1],12)\n",
    "model.summary()"
   ]
  },
  {
   "cell_type": "markdown",
…
    "    model.compile(loss='categorical_crossentropy', optimizer='adadelta', metrics=['accuracy'])\n",
    "    return model"
   ]
  },
  {
   "cell_type": "code",
   "execution_count": 229,
   "metadata": {},
   "outputs": [
    {
     "name": "stdout",
     "output_type": "stream",
     "text": [
      "Model: \"sequential_27\"\n",
      "_________________________________________________________________\n",
      "Layer (type)                 Output Shape              Param #   \n",
      "=================================================================\n",
      "dropout_102 (Dropout)        (None, 21566)             0         \n",
      "_________________________________________________________________\n",
      "dense_101 (Dense)            (None, 75)                1617525   \n",
      "_________________________________________________________________\n",
      "p_re_lu_76 (PReLU)           (None, 75)                75        \n",
      "_________________________________________________________________\n",
      "dropout_103 (Dropout)        (None, 75)                0         \n",
      "_________________________________________________________________\n",
      "dense_102 (Dense)            (None, 50)                3800      \n",
      "_________________________________________________________________\n",
      "p_re_lu_77 (PReLU)           (None, 50)                50        \n",
      "_________________________________________________________________\n",
      "dropout_104 (Dropout)        (None, 50)                0         \n",
      "_________________________________________________________________\n",
      "dense_103 (Dense)            (None, 12)                612       \n",
      "=================================================================\n",
      "Total params: 1,622,062\n",
      "Trainable params: 1,622,062\n",
      "Non-trainable params: 0\n",
      "_________________________________________________________________\n"
     ]
    }
   ],
   "source": [
    "model=model_nn_1(X_tr_event_o_h.shape[1],12)\n",
    "model.summary()"
   ]
  },
  {
   "cell_type": "code",
…
